app/BASIC/conv_script_10/conv.pt (torch, 60715 bytes, 2 tensors)

weight f4 [32, 1, 41, 11]
0	0xbc95e227	-0.018296314
1	0x3b35194f	0.0027633493
2	0xbcac78ef	-0.02105376
3	0xbd262f97	-0.04057273
4	0x3ccea942	0.025227193
5	0xbd009ffe	-0.03140258
6	0xbd119dca	-0.03555087
7	0x3d0eff35	0.034911353
8	0x3cde2ed9	0.027121948
9	0x3c2ed5a6	0.010671055
10	0xbd3a4c16	-0.045482717
11	0x3c583e77	0.0131984865
12	0xbd2608e0	-0.040535808
13	0xbbccbfc3	-0.0062484457
14	0x3cae0555	0.021242777
15	0xbcb7408f	-0.022369651
16	0xbcccc2af	-0.024995176
17	0x3c065d9f	0.008201032
18	0x3d34d5ed	0.044149328
19	0x3caade71	0.020858021
20	0x3d260a8b	0.0405374
21	0x3d09604b	0.033539098
22	0x3bab740d	0.00523234
23	0x3c377de1	0.011199445
24	0x3d03c484	0.032169834
25	0xbc072437	-0.00824838
26	0xbcabe310	-0.020982295
27	0x3c3cff34	0.011535455
28	0xbcea89a8	-0.028630093
29	0x3b82bfea	0.003990163
30	0xbd39ccc1	-0.045361284
31	0xbd3f64b7	-0.04672691
32	0xbd2de5bc	-0.04245542
33	0xbcd73e5b	-0.02627485
34	0xbd348aff	-0.04407787
35	0xbaed102a	-0.0018086482
36	0x3c791354	0.015202362
37	0x3bd29b79	0.006427225
38	0xbd37d6b3	-0.044882488
39	0x3d3a05b5	0.0454156
40	0x3c565eda	0.013084138
41	0xbc1f00ea	-0.009704808
42	0x3cc6b560	0.024256408
43	0xbc16bb68	-0.009199955
44	0x3c4c2ae5	0.012461399
45	0x3d3f2c13	0.04667289
46	0xbc171a7a	-0.009222621
47	0x3ccf50ab	0.02530702
48	0x3ca3c42b	0.019991001
49	0xbce8e474	-0.028429247
50	0x3d1317d8	0.03591141
51	0x3cdba472	0.026811812
52	0x3d07b5cf	0.03313237
53	0x3b39b29b	0.0028335217
54	0x3cb92934	0.022602655
55	0x3c407e90	0.011748925
56	0xbd18a617	-0.03726777
57	0xbd348f46	-0.04408195
58	0xbd188e1c	-0.0372449
59	0x3d1ff03a	0.039047457
60	0xbc9a888b	-0.018863937
61	0x3d40a696	0.04703387
62	0x3cb9ed17	0.022696061
63	0x3cb7fdcb	0.022459885
64	0x3d1774d7	0.03697666
65	0x3ccb1e41	0.0247947
66	0xbbfed044	-0.007776292
67	0xbd31e33d	-0.043429602
68	0xbc2f4fea	-0.010700205
69	0xbd37d0a0	-0.044876695
70	0x3c63a358	0.013893925
71	0x3d17191d	0.036889184
72	0xbc00106d	-0.007816416
73	0x3bdad536	0.0066782488
74	0xbcab88da	-0.02093928
75	0xbccce223	-0.025010174
76	0x3b8c5ea0	0.004283741
77	0xbd0a539f	-0.033771154
78	0x3c920a96	0.017827313
79	0x3d2ab361	0.041674975
80	0xbcc33f9a	-0.023834039
81	0xbcc70d71	-0.024298402
82	0x3b04197e	0.0020156796
83	0x3c4f1c7e	0.01264107
84	0x3d1ff73b	0.039054137
85	0x3d271608	0.040792495
86	0x3d13db94	0.036098078
87	0xbd0009fa	-0.031259514
88	0xbd1f9bcb	-0.038966935
89	0x3cc8aed2	0.024497423
90	0x3cb54d84	0.022131689
91	0xbd050b22	-0.03248132
92	0x3ca1cc98	0.019750878
93	0xbcc4c999	-0.02402191
94	0x3ba41741	0.005007655
95	0xbc2e7c5f	-0.01064977
96	0x3d2c3106	0.04203894
97	0xbd007d74	-0.03136964
98	0xbd3b8ea8	-0.045790344
99	0xbba7d24c	-0.005121505
100	0xbc725956	-0.014791807
101	0xbbfabb19	-0.0076516983
102	0x3d3e8e81	0.04652262
103	0x3c0c38a6	0.008558428
104	0xbcf19215	-0.029488603
105	0xbc9ebdee	-0.019377675
106	0x3c6c00cb	0.014404486
107	0x3babbf34	0.005241299
108	0xbd1ff550	-0.039052308
109	0x3b7c7cca	0.0038526529
110	0xbc64eafb	-0.013972039
111	0xbb31d6b8	-0.002713604
112	0x38f6dc14	0.00011771187
113	0xbce2d959	-0.02769153
114	0x3cb5d567	0.022196485
115	0xbcd5ebc7	-0.026113404
116	0x3bfee7ff	0.007779121
117	0x3c364130	0.01112394
118	0x3cd7d2f4	0.026345707
119	0xbc80cc5e	-0.01572245
120	0x3c13de44	0.00902516
121	0x3b9d7ddf	0.004806265
122	0x3a8163e2	0.0009871686
123	0xbcd31b79	-0.025769936
124	0xbd0f61de	-0.035005443
125	0xbd2153ba	-0.03938649
126	0xbbc2c893	-0.0059443205
127	0x3cbc62c1	0.022996308
128	0xbd36820d	-0.04455762
129	0x3c763a7f	0.015028595
130	0x3d27a93e	0.040932886
131	0x3cb8711a	0.022514869
132	0x3d12c448	0.03583172
133	0x3c0cdd2c	0.008597653
134	0x3d1fa390	0.038974345
135	0xbcc80a97	-0.024419112
136	0xbc868ba6	-0.016424011
137	0x3d234627	0.039861824
138	0xbb99e1dd	-0.0046961145
139	0x3cecc95e	0.028904613
140	0x3d20d151	0.03926212
141	0xbc38d120	-0.011280328
142	0xbc10e4b6	-0.008843591
143	0x3cb6ff0f	0.022338418
144	0xbbdb294f	-0.006688274
145	0xbd379e90	-0.04482895
146	0xbd381778	-0.044944257
147	0x3cb01858	0.021495983
148	0x3cf71490	0.030161172
149	0x3ccffc93	0.025388991
150	0xbcdbc826	-0.026828837
151	0xbd2614bb	-0.040547114
152	0x3c867d1c	0.016417079
153	0xbd2398e2	-0.039940722
154	0xbcce5158	-0.025185272
155	0x3bd26358	0.006420534
156	0xbbac2dd1	-0.005254485
157	0x3aa605f6	0.0012666571
158	0xbc6a5f7a	-0.01430499
159	0xbd166562	-0.03671778
160	0xbcdc5033	-0.02689371
161	0xbd018516	-0.03162106
162	0xbd2371b4	-0.039903358
163	0xbd09f200	-0.033678055
164	0xbc405459	-0.01173886
165	0xbcd8a61c	-0.026446395
166	0x3d0c238c	0.034213588
167	0xbc2c882d	-0.010530514
168	0x3c50da29	0.012747326
169	0x3d0e0d58	0.034680694
170	0x3c44a6d9	0.01200267
171	0x3a914004	0.00110817
172	0x3c67384a	0.014112541
173	0xbd3ed116	-0.04658612
174	0x3a87aae9	0.0010350618
175	0xbcde1d97	-0.027113719
176	0x3c83df93	0.01609782
177	0xbb274763	-0.0025524728
178	0x3d088ad0	0.033335507
179	0xbd2bdc92	-0.0419584
180	0x3d0af83f	0.033928152
181	0xbd324ac9	-0.043528352
182	0x3ca4ccf5	0.020117262
183	0xbc07b9b8	-0.008284025
184	0xbd3e588b	-0.04647116
185	0x3adc45c5	0.0016805461
186	0xbd2a54cf	-0.041584786
187	0xbd1a36f2	-0.037650056
188	0x3c611d0f	0.013739838
189	0x3b5bcf33	0.0033540248
190	0xbc86b145	-0.01644195
191	0xbb9f5521	-0.004862443
192	0x3d27178b	0.040793937
193	0xbc514fcf	-0.0127753755
194	0x3d200de3	0.039075743
195	0xbc4bd3a4	-0.012440596
196	0xbca2f3fb	-0.01989173
197	0x3d2c95db	0.0421351
198	0xbd0f988b	-0.035057586
199	0xbbc83f3c	-0.0061110537
200	0xbc96e189	-0.01841809
201	0xbcb00c84	-0.021490343
202	0xbb3cd2ba	-0.0028812126
203	0xbcb90756	-0.022586506
204	0xbcb2f934	-0.021847345
205	0xbcb1a54f	-0.02168527
206	0x3cb13273	0.021630501
207	0x3d12e0ac	0.035858795
208	0xbd15379b	-0.036429983
209	0xbd0f4cb8	-0.034985274
210	0x3c01ccea	0.0079223905
211	0x3c444ee3	0.011981699
212	0xbc8fb09d	-0.01754027
213	0xbc90e094	-0.017685212
214	0x3b939a76	0.004504497
215	0x3c14ecee	0.009089692
216	0x3b9d2e6f	0.004796795
217	0xbceade9d	-0.028670603
218	0x3cc19b66	0.02363367
219	0xbd06b19b	-0.03288422
220	0x3b8aa3b6	0.0042309416
221	0x3ca3d1a8	0.019997433
222	0xbce45eb2	-0.027877185
223	0xbd3d17ca	-0.046165265
224	0x3d25c3ad	0.040469814
225	0xbd141dfd	-0.03616141
226	0x3d2b7a57	0.04186472
227	0xbcf99c00	-0.030469894
228	0x3b44eb8d	0.0030047626
229	0xbd0cd445	-0.034382124
230	0xbbd407bf	-0.00647065
231	0xbbc3ce3e	-0.0059755137
232	0x3cc0ba7e	0.023526426
233	0x3c4ddbe5	0.012564634
234	0xbd088ad5	-0.033335526
235	0xbc7cd07d	-0.015430567
236	0xbd02864a	-0.03186635
237	0x3c44e7e6	0.0120181795
238	0xbd069fb7	-0.03286716
239	0x3cbbfb0b	0.022946855
240	0xbd356f70	-0.04429573
241	0xbd1cda30	-0.038294017
242	0xbcdfea08	-0.027333274
243	0xbb987b61	-0.00465338
244	0xbd1482c8	-0.036257535
245	0x3ce6776e	0.02813312
246	0xbd3b56dd	-0.045737136
247	0x3b7da602	0.0038703685
248	0x3ce91ba7	0.028455568
249	0x3d18f8b1	0.037346546
250	0x3d242afa	0.04008005
251	0x3d09c3b8	0.033633918
252	0xbd0637dc	-0.032768115
253	0xbd31ead9	-0.04343686
254	0x3cae76e0	0.021296918
255	0x3d3c0baa	0.04590956

bias f4 [32]
0	0x3c499fd4	0.012306172
1	0xbca6920d	-0.020333314
2	0xbd1550a4	-0.036453858
3	0x3cb9f9ec	0.02270218
4	0x3d34a64d	0.04410391
5	0xbc964212	-0.018342052
6	0x3c8869b0	0.016651958
7	0xbd02a0c4	-0.0318916
8	0xbb13a320	-0.002252765
9	0x3c7f3928	0.015577592
10	0xbcde98de	-0.027172502
11	0xbd3d1777	-0.046164956
12	0xbd2c88b0	-0.042122543
13	0xbc56c283	-0.013107899
14	0x3d138953	0.036019634
15	0xbc2ab62b	-0.010419409
16	0xbcae41ce	-0.021271612
17	0xbd2770a3	-0.040878903
18	0xbcac5b56	-0.021039646
19	0x3d2addd7	0.04171547
20	0x3d132a64	0.0359291
21	0x3d0b8976	0.03406664
22	0x3d1ebc3b	0.03875373
23	0x3c80de9a	0.015731145
24	0x3c56001c	0.0130615495
25	0xbcd5b5aa	-0.0260876
26	0xbc8a10ea	-0.016853768
27	0xbc5892a9	-0.01321856
28	0x3d109e2b	0.03530709
29	0x3b901956	0.0043975515
30	0x3d3cde50	0.04611045
31	0xbd360f10	-0.04444796
